…
mmary()\n","model.compile(loss='binary_crossentropy',optimizer=tf.keras.optimizers.RMSprop(),metrics=['accuracy'])"],"execution_count":58,"outputs":[{"output_type":"stream","name":"stdout","text":["Model: \"model_1\"\n","_________________________________________________________________\n"," Layer (type)                Output Shape              Param #   \n","=================================================================\n"," inputs (InputLayer)         [(None, 100)]             0         \n","                                                                 \n"," embedding_1 (Embedding)     (None, 100, 100)          100000    \n","                                                                 \n"," lstm_1 (LSTM)               (None, 64)                42240     \n","                                                                 \n"," FC1 (Dense)                 (None, 128)               8320      \n","                                                                 \n"," activation_2 (Activation)   (None, 128)               0         \n","                                                                 \n"," dropout_1 (Dropout)         (None, 128)               0         \n","                                                                 \n"," out_layer (Dense)           (None, 1)                 129       \n","                                                                 \n"," activation_3 (Activation)   (None, 1)                 0         \n","                                                                 \n","=================================================================\n","Total params: 150,689\n","Trainable params: 150,689\n","Non-trainable params: 0\n","_________________________________________________________________\n"]}]},{"cell_type":"code","metadata":{"colab":{"base_uri":"https://localhost:8080/","height":86
…
